models/simu3/weight.pt (torch, 43981 bytes, 6 tensors)

rnn.weight_ih_l0 f4 [100, 1]
000000 d2 80 cc bd 3d 06 ab 3e 24 7c 31 3d 66 26 41 be
       -0.09985508 0.33403197 0.04333128 -0.18862304
000010 5b 59 10 3d 22 53 01 3e 55 42 b4 bd d6 79 cf bd
       0.035241466 0.12629369 -0.08801714 -0.1013066
000020 7e 4d 50 3d d7 a1 4d 3c bd 02 8d bd 83 52 3a 3e
       0.050855152 0.012550793 -0.06885288 0.18195538
000030 83 22 d5 bb 0a 51 38 be c3 cc d2 3d f6 fc 97 3e
       -0.0065043583 -0.17999664 0.102929614 0.2968518
000040 8c 43 c9 3c 6a 72 26 bd 50 d0 39 3d 27 77 12 3e
       0.024568342 -0.040636458 0.045364678 0.14303266
000050 92 8e 76 3e 7f 9d 78 3e e9 5c 86 3e db 6e d6 bd
       0.24077824 0.2427883 0.2624276 -0.10470363
000060 fd 4a 5b 3e 94 83 15 3e d5 eb e6 3d 09 17 8b bd
       0.21415325 0.14600974 0.1127545 -0.06791503
000070 5b 09 9e be b0 0a 37 bd dc 23 06 3e 56 d6 57 3d
       -0.30866513 -0.044687927 0.13099617 0.05269464
000080 e8 47 2d bd 6f 75 6f be 78 79 a8 3d 3f 73 91 3d
       -0.042304903 -0.23384641 0.08226293 0.071020596
000090 39 bf 0e be 3b b1 61 be a7 fb f7 bd 11 2c a0 be
       -0.13940133 -0.22040264 -0.12108546 -0.3128362
0000a0 18 87 26 be 4c da d9 3d c8 1a 58 bd 41 5b af bc
       -0.16262472 0.1063734 -0.052759916 -0.021405818
0000b0 bf 13 c1 3d d3 90 35 3e d6 95 79 be e8 00 35 3e
       0.094275944 0.17731027 -0.24373564 0.17676127
0000c0 d6 bf c4 bd d6 0c 38 bb 3e 48 64 3e 47 b1 57 3d
       -0.09606902 -0.0028083823 0.22293183 0.0526593
0000d0 8e cd 00 3e 9d 98 5c 3c 4b 0d a9 bd b7 a8 b1 3e
       0.12578413 0.01346412 -0.082544886 0.34699032
0000e0 2b 81 e8 bd 19 c5 65 3d b2 c3 93 be 6b 2b 94 3d
       -0.11352762 0.05609617 -0.2886024 0.07234844
0000f0 f4 aa 40 be 40 e3 fe 3c dd de 3a be 96 4a e4 bd
       -0.18815213 0.03111422 -0.18249078 -0.11147039
000100 ce 03 4d be cb 36 1c 3e 8d ec 4e be 73 49 0e 3e
       -0.20020983 0.15255277 -0.20207424 0.13895206
000110 01 a0 ab 3b fd 9f b8 3d 96 e0 93 be 0f 2a 72 bd
       0.00523758 0.0901489 -0.28882283 -0.05912214
000120 39 fc 05 be 90 cd dc 3d 8d 62 25 be 87 55 04 3d
       -0.13084497 0.107813954 -0.16150875 0.032308128
000130 6d 68 f0 3c f4 bc 0a be 95 e8 55 3d 93 94 f0 3d
       0.02934667 -0.13548642 0.05222376 0.11747088
000140 d8 6b 9b 3e 5c db 8d 3c 0c 8a 00 bd 38 e3 6a 3c
       0.30355716 0.017316513 -0.03138165 0.0143364
000150 c6 35 d0 3d 58 f5 96 3e 86 82 f5 bd a3 8f 00 3e
       0.101665065 0.29484057 -0.11987786 0.12554793
000160 c5 0a 58 bc 7e 76 15 3e 41 91 28 3e df 17 8d be
       -0.013186161 0.14595982 0.1646166 -0.27557275
000170 44 ef 44 3e b7 cd 01 3d ac 05 0e 3d 8f 23 6a be
       0.19231898 0.031690326 0.034673378 -0.22865127
000180 1f da ab bb 90 ac 09 bd 0c 88 9b 3d f3 6d 17 3e
       -0.005244508 -0.033611834 0.07594308 0.14788036

rnn.weight_hh_l0 f4 [100, 100]
000000 71 4a 1f bc e0 aa 51 bd fe 0b f0 3d d3 fe 0c bd
       -0.009722338 -0.05118835 0.11721037 -0.034422707
000010 6a 09 a4 3d 4c 84 c1 3d 82 e8 86 3d 24 6a bf 3d
       0.08009608 0.09449062 0.06587316 0.093464166
000020 7a d8 12 be 43 fe 1a be af 17 2a bd 75 79 00 be
       -0.14340392 -0.15136056 -0.041526493 -0.12546332
000030 64 85 f1 bd 08 45 25 be b1 51 94 3d 1a ca 33 3e
       -0.1179302 -0.16139615 0.07242144 0.17557564
000040 4e 83 59 3e 7d 3c 5f 3c dd 88 84 bd 9a f4 02 bc
       0.21241495 0.013625261 -0.06471417 -0.007992888
000050 e9 f8 0a 3e 43 d5 d5 bc f1 9e 0f 3d 87 9f db 3b
       0.13571514 -0.026102668 0.035063688 0.0067023668
000060 e7 2e 23 bd ff b1 2a 3e 2f 08 3c 3d 33 c9 80 bd
       -0.03983965 0.16669463 0.045906242 -0.06288376
000070 23 40 64 be 84 ab 09 be da c2 74 bd c1 e5 c7 bd
       -0.22290091 -0.13444334 -0.059756137 -0.09760619
000080 39 f9 f4 bd 34 0c 1d be 42 72 f5 3b 6b e4 51 3d
       -0.11961598 -0.15336686 0.0074904272 0.051243227
000090 11 c3 cf 3d 5a 2a 19 bd 5f ab ec bc 0f 9d 9d 3c
       0.10144628 -0.037393905 -0.02889031 0.01923993
0000a0 a5 06 01 be 17 e9 7e bc df 4e 19 bd 58 9f f9 bd
       -0.12600191 -0.015558503 -0.037428733 -0.121885955
0000b0 76 27 25 bc 2c 0b 14 bd 14 32 dd 3d 65 88 0f 3c
       -0.010080209 -0.036143467 0.10800567 0.008760546
0000c0 48 62 05 3e 1f 9c dc 39 0a b6 8e 3d cd d9 96 3d
       0.13025773 0.0004207799 0.06968315 0.07365761
0000d0 9a 49 04 3e ba 57 38 be fa e7 41 bd ae 3d c4 3d
       0.12918702 -0.18002215 -0.04734037 0.09582077
0000e0 c9 fe 40 bd 60 10 29 3d a8 91 18 3e e1 88 3d bd
       -0.047117982 0.041275382 0.14899313 -0.046273116
0000f0 98 f6 6d 3e 33 18 de 3d 91 9f e5 bd 46 ae e1 3d
       0.232386 0.108444594 -0.112120755 0.11019568
000100 4f 91 03 be 48 85 bd bd 6d a6 c8 3d 65 14 e8 3c
       -0.128484 -0.09253937 0.09797368 0.028330037
000110 8a c6 8e 3b d9 6d 4c 3b 07 9d 69 3c b6 f3 ee 3c
       0.004357164 0.0031193404 0.01425863 0.029168945
000120 bf 8f 93 3c 41 55 e5 3d 38 45 04 bd 14 d6 1d 3e
       0.01801288 0.111979015 -0.032292575 0.15413696
000130 e8 e8 e2 bc 58 0c ec bd 16 2d 44 be 48 f4 52 3c
       -0.027698949 -0.11525792 -0.19157824 0.012875624
000140 f7 4f a6 bd 31 c5 c0 3c 6b 98 40 3e b5 8f 83 bc
       -0.08120721 0.023531528 0.18808143 -0.016059736
000150 0f 09 73 3d 05 0c f6 3d 60 ec 78 bd 42 d3 dd bd
       0.05933481 0.12014011 -0.0607723 -0.1083131
000160 dc b2 84 3d 83 1c e3 bd ad 79 5e 3e b6 83 af 3d
       0.06479427 -0.110894226 0.21726103 0.08570044
000170 c9 34 86 bd f3 b3 04 be 7b 59 ab bd 83 5b 64 3d
       -0.06553037 -0.1295927 -0.083666764 0.055751335
000180 73 b5 07 3e ea ca 00 bd f3 2a 2a 3d a1 fc 8c bd
       0.13252811 -0.031443514 0.041544866 -0.06884123
000190 4b c6 77 3b 34 06 bd 3d bc 00 eb bd 07 12 9a bd
       0.00378074 0.09229699 -0.114747494 -0.0752297
0001a0 89 48 0f bc a6 18 14 bd f1 02 dc bb 3c 0a 14 3e
       -0.008745321 -0.03615632 -0.006714218 0.14457029
0001b0 af b0 eb 3d 5b 11 d6 3d 1f 88 e2 bc 64 1f 70 bc
       0.11508309 0.10452529 -0.027652798 -0.014655922
0001c0 0d bd 53 3d 2a 83 6e 3c 5d 18 dc bd 90 a8 42 bd
       0.051693965 0.014557639 -0.107468344 -0.047524035
0001d0 ed 61 0b 3e 1e 6f b7 bd e5 ef 23 3e a1 2f 8f be
       0.13611574 -0.08956741 0.16009481 -0.27966025
0001e0 37 17 6e 3d 4f 7d c1 3d 06 44 93 bc 88 fa a4 3d
       0.05812761 0.09447729 -0.017976772 0.080555975
0001f0 a2 ac 13 3e 63 06 bc 3d e8 5e 99 bd f7 be 76 bd
       0.14421323 0.09180906 -0.07488805 -0.060240712
000200 c4 89 41 3e b7 1e 08 be ca 62 e1 bd 6c 0b 71 bd
       0.1890021 -0.13292967 -0.11005171 -0.058848783
000210 7b e0 27 bc 03 b2 0b be 7e 1b 40 bc 06 35 19 3d
       -0.010246391 -0.13642125 -0.011725305 0.037404083
000220 3a df 86 3d 1b 97 e7 3d 69 e0 11 be e9 72 72 bd
       0.06585546 0.11308118 -0.14245762 -0.059191618
000230 cc 95 31 3d 52 5d 26 bd fd 23 27 3c 27 3b 1d be
       0.043355748 -0.04061634 0.010201451 -0.15354596
000240 bf c2 63 3d d9 2d ca 3d b0 c4 04 be 96 d9 da 3c
       0.055605646 0.09872026 -0.12965655 0.026715081
000250 fd 40 bf bd ed ec 83 3d dd ab af bd 17 79 14 3e
       -0.093385674 0.064416744 -0.08577702 0.14499317
000260 83 01 92 bb e9 af 2c 3e 1a 33 5f 3e a3 d5 cc 3c
       -0.0044557466 0.1686398 0.21796837 0.025004214
000270 25 1d d0 3a d5 df 8d 3d 81 da 07 bc f6 7f 08 3d
       0.0015877826 0.06927458 -0.0082918415 0.033325158
000280 7f 2d e8 3d c2 d8 6c bd 7d 26 41 be a1 c9 d7 3c
       0.11336803 -0.057823904 -0.18862338 0.026341261
000290 31 ac 1b 3e 84 8a 54 bd 70 ec 13 3e ff 43 57 3d
       0.15202405 -0.05188991 0.14445662 0.05255508
0002a0 c6 59 53 3d 99 0d 3c 3d c9 75 11 3e da 0b 05 be
       0.051599286 0.045911405 0.14205088 -0.12992802
0002b0 53 63 26 3d 8a 58 2f be b1 49 36 3e 83 e4 aa 3d
       0.040622067 -0.17123619 0.17801549 0.083443664
0002c0 8e a9 49 be 0b 83 13 3e 6f 1a 4d bd b2 47 17 bd
       -0.19693586 0.14405458 -0.050074037 -0.03693361
0002d0 85 ed 55 3e 0e d8 20 bd f3 05 24 3e 8c 42 04 be
       0.20891388 -0.039268546 0.16017894 -0.1291601
0002e0 85 72 6e 3e 8a db ba bd 3b f4 c3 bd cb e7 c2 39
       0.23285873 -0.09123905 -0.09568068 0.00037175263
0002f0 1a fc 12 bc cf ad b2 3c 50 8d 9c 3d bf cb 58 3d
       -0.0089712385 0.021811394 0.07644141 0.052928682
000300 30 b2 ac 3c 08 f6 1d bd 25 9a 17 be 94 f7 c4 3d
       0.02108106 -0.03856471 -0.14804895 0.09617534
000310 23 5c c4 bd 61 13 e0 3c e4 c5 fe 3c a6 75 13 3c
       -0.09587886 0.02735299 0.031100221 0.009000218
000320 cc 18 37 bd f4 1f 04 be cd 43 f9 3c cc 09 a5 3d
       -0.044701383 -0.12902814 0.030427838 0.08058509
000330 e1 a3 1a be 75 b8 34 be cb 47 2b bc 78 21 3f bd
       -0.15101577 -0.1764849 -0.0104541285 -0.046662778
000340 a1 43 92 bc ec 01 37 3c d7 2a ce 3d 0c c0 91 3d
       -0.017854514 0.011169892 0.10066765 0.07116708
000350 bb 27 a1 3d 4a d3 fd bd 8b 65 2b 3e e2 ce b1 3b
       0.07868906 -0.12393816 0.16737954 0.0054262737
000360 85 2c 98 3d 62 3a 24 bd ee a9 91 bd 66 a5 cd 3d
       0.074303664 -0.04009474 -0.0711249 0.10041313
000370 73 21 c9 3d b1 0a 5f bd ed 23 ae 3c fd 24 94 3d
       0.09820833 -0.054453555 0.021257365 0.072336175
000380 35 5c d1 bd 42 ec 02 bd e0 f4 30 3d 60 c2 f3 bd
       -0.10222665 -0.031963594 0.04320228 -0.119023085
000390 9b 16 10 be 07 cc e5 bc 35 d9 20 3e e2 bb 1f 3d
       -0.14071123 -0.02805139 0.15707858 0.03899754
0003a0 dd f9 3b 3e 7c d4 7c 3e c5 69 03 bd 3c 1c 37 bd
       0.18357034 0.24690431 -0.03208329 -0.04470466
0003b0 99 88 e9 bd 43 7c 0f 3c 38 b7 b5 bd c7 20 e2 bd
       -0.11403007 0.008757654 -0.08872837 -0.11041408
0003c0 8a b9 53 bb f1 58 26 3e 11 7c 6e bd cf 3c 17 bc
       -0.0032306635 0.16244866 -0.058223788 -0.0092308065
0003d0 e8 71 c3 3d 2c af 27 3c 4c 8e a7 bd d6 4d d9 bd
       0.0954321 0.010234635 -0.08181438 -0.10610549
0003e0 45 25 1a 3e ce df 71 3d d7 95 7d 3d fe 9d 24 3d
       0.1505328 0.059051327 0.061910477 0.040189736
0003f0 0e 62 6f bc b5 1b 32 3d 96 48 a8 bd 01 ef be 3c
       -0.01461078 0.043483455 -0.0821697 0.023307325

rnn.bias_ih_l0 f4 [100]
000000 14 54 bf bb 82 62 70 3b df c5 6a bb 39 17 69 bc
       -0.0058388803 0.003667981 -0.0035823507 -0.014226728
000010 5b 62 ba 3b 1c 6f 0f 3c d4 5f d3 bc 9e ec b0 3b
       0.0056879944 0.008754518 -0.02580253 0.0053993007
000020 52 0b c4 b9 15 ae 86 3c 4a 4b c4 bc 2a b7 4e bc
       -0.00037392467 0.01644043 -0.023961682 -0.012616912
000030 bb ab 18 bc 26 f1 cf 3b e4 cc 9e bc 63 ea 58 3a
       -0.0093182875 0.006345886 -0.019384809 0.00082746724
000040 da cc 86 bb 3c 19 cb bb fa e1 48 bc 29 15 80 b9
       -0.0041137757 -0.0061980765 -0.012260908 -0.00024429828
000050 d0 bc a9 38 f6 60 5f bb 86 e4 79 3b 84 8e 5a 3b
       8.093717e-05 -0.0034084893 0.0038130595 0.0033349106
000060 50 87 8f bb fb ee 7d 3f e9 ec 7f 3f 85 fc 7f 3f
       -0.004380144 0.9919278 0.9997087 0.9999469
000070 94 14 7d 3f 53 25 7d 3f a5 f8 7a 3f 35 c9 7d 3f
       0.98859525 0.9888508 0.9803565 0.9913514
000080 57 53 7f 3f 52 61 7c 3f 7c fb 7b 3f 2b 36 7e 3f
       0.9973654 0.98586 0.9843061 0.99301404
000090 19 33 7a 3f 7c 68 7e 3f a1 6b 7c 3f 4c e7 7d 3f
       0.9773422 0.9937818 0.9860173 0.99181056
0000a0 af d7 81 3f 13 eb 78 3f e4 dd 7f 3f 26 b5 7a 3f
       1.0143946 0.97233695 0.99947953 0.9793266
0000b0 d9 ec 79 3f e1 f9 7c 3f 9e 24 7b 3f 67 a8 79 3f
       0.97627026 0.98818785 0.9810275 0.97522587
0000c0 8c 61 7e 3f d2 4c 7c 3f 32 6a 6a bc 5e 2c b8 bc
       0.99367595 0.9855472 -0.0143075455 -0.022482093
0000d0 07 0e d2 3b 37 50 bc 3c cf 9a 1a 3b 03 4a b6 ba
       0.0064103636 0.022987468 0.0023590808 -0.0013907555
0000e0 83 b7 8e bb 17 ec 8f bc 85 bd b8 bb a1 11 2d bc
       -0.0043553724 -0.017568631 -0.005637827 -0.010563285
0000f0 e0 9b 1e 3c a1 93 9d 3b 7c e0 6a bb 56 c2 95 bb
       0.009680718 0.0048088585 -0.003583937 -0.004570286
000100 67 57 91 bc ef 8d 1e 3c 4a 31 1d 3a 55 84 af ba
       -0.017741872 0.009677394 0.00059964193 -0.0013390878
000110 5b ad 33 3c 8b 35 c7 3b dc bb ff 3b 32 70 2b bc
       0.010966624 0.006079381 0.007804377 -0.010463761
000120 16 d8 02 3b c6 e1 1a 3c 45 54 c1 39 7c ff 98 3c
       0.0019965223 0.009453243 0.00036874614 0.018676512
000130 ba 8b 38 bb d9 6c 02 bc a5 af 39 3b f5 dc a0 bc
       -0.0028159455 -0.007960522 0.0028333452 -0.01963661
000140 2e 43 e3 3c 44 82 85 bc 36 88 ef 3b 70 9b 4a 3b
       0.027741995 -0.016297467 0.007309939 0.0030915402
000150 49 18 59 3a f3 7e 1e 3c aa 84 f3 bc b1 05 76 bb
       0.0008281512 0.009673822 -0.029726345 -0.0037540013
000160 db 5f 44 3c 90 e9 82 3c 92 b2 3a bb 29 61 85 3c
       0.011985744 0.015980512 -0.0028487784 0.016281681
000170 5e 21 bf 3b 58 d1 54 bc 90 2e 58 3a dd 2b 8f b9
       0.005832835 -0.012989365 0.00082466844 -0.00027307766
000180 02 8a 3f bc 55 ff 29 3c 4f 19 04 bb 4b 17 b2 bb
       -0.0116906185 0.010375817 -0.0020156687 -0.0054349056

rnn.bias_hh_l0 f4 [100]
000000 14 54 bf bb 82 62 70 3b df c5 6a bb 39 17 69 bc
       -0.0058388803 0.003667981 -0.0035823507 -0.014226728
000010 5b 62 ba 3b 1c 6f 0f 3c d4 5f d3 bc 9e ec b0 3b
       0.0056879944 0.008754518 -0.02580253 0.0053993007
000020 52 0b c4 b9 15 ae 86 3c 4a 4b c4 bc 2a b7 4e bc
       -0.00037392467 0.01644043 -0.023961682 -0.012616912
000030 bb ab 18 bc 26 f1 cf 3b e4 cc 9e bc 63 ea 58 3a
       -0.0093182875 0.006345886 -0.019384809 0.00082746724
000040 da cc 86 bb 3c 19 cb bb fa e1 48 bc 29 15 80 b9
       -0.0041137757 -0.0061980765 -0.012260908 -0.00024429828
000050 d0 bc a9 38 f6 60 5f bb 86 e4 79 3b 84 8e 5a 3b
       8.093717e-05 -0.0034084893 0.0038130595 0.0033349106
000060 50 87 8f bb b1 42 04 bc 39 a2 98 b9 89 ce 61 b8
       -0.004380144 -0.008072541 -0.00029112565 -5.383653e-05
000070 90 dc 3a bc ea ab 36 bc 93 eb a0 bc 89 b2 0d bc
       -0.011405125 -0.011149386 -0.01964358 -0.008648523
000080 aa aa 2c bb f2 ac 67 bc 26 90 80 bc 9b ea e4 bb
       -0.002634684 -0.0141403545 -0.015693735 -0.006985975
000090 2b 9d b9 bc 68 c1 cb bb 2b 17 65 bc 66 2d 06 bc
       -0.022657951 -0.006218124 -0.013982574 -0.008189535
0000a0 33 d8 6b 3c 13 9e e2 bc a4 4b 08 ba c9 5b a9 bc
       0.014394808 -0.027663266 -0.00051992596 -0.02067365
0000b0 01 65 c2 bc 31 86 41 bc 20 6c 9b bc d5 f3 ca bc
       -0.023729803 -0.011811779 -0.018972456 -0.024774471
0000c0 94 3d cf bb ff cc 6c bc 32 6a 6a bc 5e 2c b8 bc
       -0.0063244794 -0.014453172 -0.0143075455 -0.022482093
0000d0 07 0e d2 3b 37 50 bc 3c cf 9a 1a 3b 03 4a b6 ba
       0.0064103636 0.022987468 0.0023590808 -0.0013907555
0000e0 83 b7 8e bb 17 ec 8f bc 85 bd b8 bb a1 11 2d bc
       -0.0043553724 -0.017568631 -0.005637827 -0.010563285
0000f0 e0 9b 1e 3c a1 93 9d 3b 7c e0 6a bb 56 c2 95 bb
       0.009680718 0.0048088585 -0.003583937 -0.004570286
000100 67 57 91 bc ef 8d 1e 3c 4a 31 1d 3a 55 84 af ba
       -0.017741872 0.009677394 0.00059964193 -0.0013390878
000110 5b ad 33 3c 8b 35 c7 3b dc bb ff 3b 32 70 2b bc
       0.010966624 0.006079381 0.007804377 -0.010463761
000120 16 d8 02 3b c6 e1 1a 3c 45 54 c1 39 7c ff 98 3c
       0.0019965223 0.009453243 0.00036874614 0.018676512
000130 ba 8b 38 bb d9 6c 02 bc a5 af 39 3b f5 dc a0 bc
       -0.0028159455 -0.007960522 0.0028333452 -0.01963661
000140 2e 43 e3 3c 44 82 85 bc 36 88 ef 3b 70 9b 4a 3b
       0.027741995 -0.016297467 0.007309939 0.0030915402
000150 49 18 59 3a f3 7e 1e 3c aa 84 f3 bc b1 05 76 bb
       0.0008281512 0.009673822 -0.029726345 -0.0037540013
000160 db 5f 44 3c 90 e9 82 3c 92 b2 3a bb 29 61 85 3c
       0.011985744 0.015980512 -0.0028487784 0.016281681
000170 5e 21 bf 3b 58 d1 54 bc 90 2e 58 3a dd 2b 8f b9
       0.005832835 -0.012989365 0.00082466844 -0.00027307766
000180 02 8a 3f bc 55 ff 29 3c 4f 19 04 bb 4b 17 b2 bb
       -0.0116906185 0.010375817 -0.0020156687 -0.0054349056

fc.weight f4 [2, 100]
000000 ae 11 95 3b 14 da da 3d d7 d6 d2 3d b1 fa 25 bd
       0.0045492267 0.10686126 0.10294884 -0.04052228
000010 61 50 ab bd 33 fb 4f bd 70 07 ae bd af 02 01 be
       -0.083649404 -0.05077667 -0.08497512 -0.1259868
000020 f4 de 75 3d 0f 39 76 bd 7a 53 93 3d cc aa 0c 3e
       0.060027078 -0.06011301 0.07193656 0.13737029
000030 03 d4 c1 3d cb 64 07 be 7b 88 fd 3d e1 40 14 3d
       0.09464266 -0.13222043 0.12379547 0.036194686
000040 db cf e1 bd 1a d9 0e 3d b6 31 4d bd c4 72 93 3d
       -0.110259734 0.034875013 -0.050096236 0.07199624
000050 23 09 83 3d 69 4a 6c 3d 4b a6 06 bd 6d d0 07 bd
       0.06398227 0.05768815 -0.032873433 -0.033157755
000060 e3 22 30 3c c0 b0 bc 3d 9b 3b 3d 3c 6d 52 a9 bd
       0.010750505 0.092134 0.011549856 -0.082676746
000070 be e4 8a bd e1 f5 56 bd f6 c9 0b be ff e8 13 be
       -0.0678191 -0.052480582 -0.1365126 -0.1444435
000080 fd b4 10 3d f4 2d 71 3d a3 6a e8 36 71 b8 9b 3d
       0.035328854 0.058881715 6.926553e-06 0.07603539
000090 d7 9f 6a bc 19 67 8f 3d 83 c3 fa 3d 87 e7 a2 3c
       -0.014320335 0.07002086 0.12244322 0.019885791
0000a0 99 8e 6a 3d ed eb 15 3e fb 45 8a bc 78 8d 0f 3e
       0.057264898 0.1464078 -0.016879072 0.1401881
0000b0 29 1c b6 3d d8 30 db bc 91 f0 1e be 93 fe e4 bd
       0.0889209 -0.026756689 -0.15521456 -0.11181369
0000c0 11 a1 d2 3c 8e e0 96 3d 30 2a c6 3d 48 53 66 bd
       0.025711568 0.07367049 0.096760154 -0.056231767
0000d0 03 f5 cb bd 24 1f 0b 3d af 32 b2 3d 04 0c 9d bc
       -0.09958842 0.033965245 0.087010734 -0.019170769
0000e0 07 98 7e bc f5 a2 5a 3d 48 bc 03 3e b2 ec 14 3d
       -0.015539176 0.053378064 0.12864792 0.036358543
0000f0 80 98 d6 bc 07 3b df bd 8c b1 05 be 55 1b 03 3e
       -0.026195765 -0.108999304 -0.1305601 0.12803395
000100 a1 c1 97 3d 2e f1 6a 3c 7d f7 09 be a4 f6 2e bd
       0.07409979 0.014339728 -0.13473316 -0.042715684
000110 97 36 28 bc c3 68 89 3d d2 f2 c8 3c d0 64 3d 3d
       -0.0102669215 0.06709435 0.024529848 0.04623872
000120 a1 c7 d1 bd 1d 21 c4 3d 26 19 ac 3c 06 4e 71 3d
       -0.10243154 0.09576628 0.021008085 0.0589123
000130 15 92 6e bd d5 90 c2 3c c6 e2 46 bd f2 1d e8 3d
       -0.058244783 0.023750702 -0.04855611 0.113338366
000140 b4 e7 2e 3b b7 8c 38 3d 8e 46 74 3c 8c 0b ac 3c
       0.0026688399 0.04505607 0.0149094 0.0210016
000150 dc 72 0c 3e 7b 11 e1 3d ee b3 61 3d cd f1 0f bd
       0.1371569 0.10989662 0.055103235 -0.03514271
000160 9e 97 ee 3c 15 0d 80 3d 63 ff 1b bd dd 18 a9 bd
       0.029125031 0.06252495 -0.038085353 -0.082566954
000170 b7 86 06 3e e9 ef dd 3d 06 8e 38 bd 24 c9 c6 bd
       0.13137327 0.10836775 -0.04505732 -0.09706333
000180 b9 71 0c 3c bc 88 85 3c aa cc 51 bd c6 3f 9a bd
       0.0085720355 0.016300552 -0.051220573 -0.07531695
000190 03 89 90 bd 47 42 fd bd cb 3a 90 3b b4 17 76 3b
       -0.07057383 -0.12366157 0.00440154 0.003755075
0001a0 f3 b9 d5 3d e7 c2 4a bd 3a 9b de ba cb 02 08 bd
       0.104358576 -0.04950228 -0.0016983517 -0.03320579
0001b0 d0 f2 5f bc 75 f9 d7 bb bc 2e ce bd 95 7f b6 bd
       -0.013668731 -0.006591017 -0.100675076 -0.08911053
0001c0 74 e9 fd bd 6d a0 f7 bc 43 1d db bd 60 ef 9d 3d
       -0.12398043 -0.030227864 -0.106989406 0.07711673
0001d0 12 59 83 3c b5 d2 97 bd 86 69 c1 3d b5 13 1a be
       0.016033683 -0.07413236 0.09443955 -0.1504658
0001e0 a5 d8 09 be 1d 05 c5 3d 89 55 e3 ba 0c b9 99 3c
       -0.1346155 0.09620116 -0.0017344217 0.018764995
0001f0 3e 53 07 be be 0d 4f bb ce e3 1d bd 44 43 05 bd
       -0.13215348 -0.0031593884 -0.03854733 -0.032534853
000200 f0 27 31 3c 4d 98 75 bd 3e 3e a5 3d e7 3d a4 3c
       0.0108127445 -0.0599597 0.080685124 0.020049049
000210 93 04 63 bc 4f a1 03 bd c5 a7 05 3d 1b e7 87 3b
       -0.013856071 -0.032136258 0.0326307 0.004147423
000220 ba c0 99 bd e4 f2 11 3d d1 4c 48 3d da 39 55 bd
       -0.07507463 0.03563203 0.048901383 -0.052057125
000230 2a 6d 6d 3d 2a 19 8e bd b4 b5 25 3d 5b eb eb bd
       0.057965435 -0.069383934 0.04045649 -0.115195
000240 be 7c 8b 3d db e1 a9 bd 2e fe a3 3d cb f7 0c 3d
       0.06810902 -0.08295032 0.08007465 0.034416
000250 9f 72 c0 bd 4a 9c b7 bc d5 70 92 bd bd b6 f7 3d
       -0.09396862 -0.022413392 -0.07150427 0.120954014
000260 54 4f b3 bd e5 ce c7 bd da 06 80 3d 12 a7 1b 3c
       -0.08755365 -0.09756259 0.06251307 0.009500282
000270 60 8a 05 be e8 80 8a bd ed 05 6b 3c a6 ad ff 3d
       -0.13041067 -0.06762868 0.014344675 0.12484293
000280 7b 9d 21 bd 3e 15 a0 3d c0 c8 98 3d 4f 42 a9 bd
       -0.039456826 0.078165516 0.07460165 -0.082646005
000290 2c b6 01 3d 28 4a bd 3d 20 d6 46 bc 3a c9 46 bd
       0.031667873 0.0924266 -0.012136012 -0.04853175
0002a0 67 c8 0d 3e 3a 2c 12 be df 9e ba 3d ec c9 8c bd
       0.13845979 -0.14274684 0.091123335 -0.06874451
0002b0 ff e2 0d 3d da 37 2d 3d bb ff d2 bd e7 a8 18 3d
       0.03464031 0.042289592 -0.10302683 0.037270453
0002c0 b7 89 89 3d d7 89 01 be d7 45 b1 3d 1f 0c e8 bd
       0.0671572 -0.12650238 0.08655899 -0.11330437
0002d0 c7 71 60 bd b6 e1 7e bb 21 e4 c5 3d 6d 38 33 bd
       -0.054796007 -0.0038891858 0.09662653 -0.043754984
0002e0 6e 9b 49 3d 79 86 c6 3a b2 9d 7b 3c de e6 cd 3d
       0.049220495 0.0015146277 0.015357422 0.100538
0002f0 c6 19 0a 3c 6d ae 94 3d cc db 31 bd 33 c7 89 3d
       0.008428996 0.072598316 -0.043422505 0.06727447
000300 af 27 62 3c b6 84 eb bd 68 3d 65 3d ae 4d ec 3d
       0.013803407 -0.11499922 0.055966765 0.11538254
000310 58 b8 ff 3d ca ca 16 3d 6d 9f 04 be 1d d1 40 bb
       0.12486333 0.03681449 -0.12951441 -0.0029421516

fc.bias f4 [2]
000000 e3 61 9f bd 39 6a ae 3d
       -0.07782342 0.08516354
